examples/pytorch/epochs-5.model.pth (torch, 140879 bytes, 7 tensors)

weight f4 [128, 8]
00000000: f8b3 a73d de79 d53e c378 af3e dc32 a83d
00000010: c4eb 1ebe 55fc 30bd 6d96 aa3e ee09 a83d
00000020: 5af4 683f 4e17 993d 1bdc a33e 5c96 d2be
00000030: 19d2 253e 50b5 a0be 6b84 8d3d 9ab1 873d
00000040: bc30 39bf f8e3 803e 26a1 4ebd c094 b5bd
00000050: 4c9b 4b3e 7e34 413e ebcd a13e a0a5 4dbd
00000060: c797 d5bd ea88 95be 8648 c4be e192 983e
00000070: 0abc 6dbe 5be7 2abe 70ea b93d 9b29 0e3d
00000080: f3cb 953e dfa1 1cbe b1b5 553d 04ca 38be
00000090: 7a78 36be 95fd 88be bf16 073e 72d9 e93d
000000a0: f202 aebd dfe0 633e dc74 873e 94c7 143e
000000b0: b6c0 a9bd 0ebb b3be 6d92 6f3c 57a6 923d
000000c0: 82e8 483e e514 973e 61f9 98be 7a9d a93e
000000d0: 81c7 13be adba 223e 8f1d fd3c 0ab5 2d3e
000000e0: 8557 6d3f 1c91 ca3c 013a a63e 56b4 663d
000000f0: 0681 403c 0cb3 8bbe 28a0 ecbd b3fc 013d
00000100: 89e1 c93e 7ad2 a83e 3e88 4f3d 191e d03b
00000110: 8955 4cbe bed6 12be 6130 803d 4775 0a3e
00000120: 6689 75bc 225a abbe 1962 8bbe acfc 17be
00000130: 2b4c 8ebd 7b20 8a3c 460d b1be f1a3 a8bd
00000140: 8a44 45be b64c 923e 2adc 223e 395e 30be
00000150: ad20 813e 224c 963c 918e 99be 8dd8 39be
00000160: f7bf 27be 1f40 84be f1b8 c5be cd6f 95be
00000170: a6d7 0dbe 7302 1dbe 220e 19be d2bb 12be
00000180: 296a 813f d8ab 97be 3312 103f 11ee 053e
00000190: 7a6c 233e 4d1e 8cbe 5150 8ebe 2ba9 913e
000001a0: 90ab 7bbf af7a 373d 4d1b bdbe 072f e53e
000001b0: aa58 9b3d 0fa4 a63e 5f68 dbbc 7b66 8d3e
000001c0: 724d 053e ee1e 88bc 839d c6be 15c0 edbe
000001d0: 5557 3cbe b824 c0be ba58 1e3e 4c3a 02be
000001e0: 3119 8c3e 1d64 aebe 349f c33b 2e89 90bd
000001f0: f667 95bd df9a fabd fa7c 993e aaac e1bd
00000200: 0edd e93e dad9 3d3e 7f22 72bd 8d3e d3bd
00000210: 634f d9be f652 c83e 80c6 ea3d 52c0 33bb
00000220: bf09 85bf 89ab 62be 9043 163d d0c9 8ebd
00000230: 0446 973d 10f5 1a3f 0b32 903d 259c 76be
00000240: 41f5 993f b87b 003e 7ebd f63d bd42 debe
00000250: a40a a5ba 6000 09bf 36db 4c3e 590a 5abe
00000260: eb52 823e 9e82 99bd 49e6 e73d 3264 e03c
00000270: 6df7 eabd 4218 4f3d 9a01 97b9 2055 ab3e
00000280: 407f a2bf c095 87be 3ccb 64be 3a64 1d3e
00000290: a2e7 df3d 7d22 273f 1c43 2e3d 9f5b 24bc
000002a0: 7cd1 dfbe c522 3c3e 4dbc 43be d6f0 8a3d
000002b0: 4536 3ebe 9b1e e63d a2ef eabe 3849 05be
000002c0: 24bb 163f 0824 a0bd 06be 983d 788b 1cbf
000002d0: 5ff9 f73d 0d1d 60bf 8905 be3c 8a9e b53d
000002e0: 3b82 863e a621 b3be 3001 c0be a3e0 3d3e
000002f0: c35a 88be db5f 52bd eae7 253e c0d1 d7bb
00000300: 0c17 303e f30e adbe bc69 9fbe c4db a23e
00000310: 8445 9ebe 6e0e 1c3d fa7a 1fbc 3958 583e
00000320: 892e 5d3e ecf5 51be 7767 81be d3cf 9ebe
00000330: 3693 95be 7e37 67be bea0 b63d d3a2 19be
00000340: fa33 07bf 7d36 9fbe 67d9 6dbe 95cc 42be
00000350: 74d2 dbbb b472 8cbc e90c a2be 6936 763e
00000360: ccf2 973f eccd 3fbe 5d9e 263c 0b07 59bc
00000370: a748 7f3c 5d63 28bf 977d 0bbe 3a2e 85bd
00000380: c0b2 5abd 79ad 593e 4708 45be b676 c0bd
00000390: 043f c5bc e95a 88be 9b38 20be 309d 4a3e
000003a0: 76dd e53e 169f e3be e8e9 87be 9fb2 99be
000003b0: b571 afbd 387c c33e 6e59 a1be 6e75 abbe
000003c0: ead5 043c f43e c9be 9699 cdbe 8807 1f3e
000003d0: 76d7 103e 2384 8abe b740 41be 5dd1 c03d
000003e0: d598 7a3f 68b1 57be 90db b03d bacd f83d
000003f0: f159 223d 6898 3abf 9a76 e1be 6fd9 35bd
0.08188623 0.4169454 0.3427182 0.08212826 -0.15519625 -0.043209393 0.3331789 0.08205019
0.9099785 0.07475148 0.32003865 -0.4113034 0.16193427 -0.3138833 0.06910022 0.06625672
-0.7233999 0.25173926 -0.050446652 -0.088662624 0.1988346 0.1886768 0.31602415 -0.05020678
-0.1042934 -0.2920602 -0.3833658 0.2979956 -0.23216262 -0.16689818 0.090779185 0.034707647
0.29257163 -0.15296124 0.052175228 -0.18045813 -0.17819396 -0.26755968 0.1319227 0.114184275
-0.084966555 0.2225375 0.26456344 0.14529258 -0.0828871 -0.3510365 0.014622313 0.07160633
0.19619945 0.2950813 -0.2987776 0.33127958 -0.14431573 0.15891524 0.030897884 0.16963592
0.9271167 0.024727397 0.32466128 0.056324326 0.011749512 -0.2728504 -0.11553985 0.031735133
0.39429882 0.3297308 0.05066704 0.006351244 -0.19954504 -0.1433973 0.062592275 0.135213
-0.014986372 -0.33467203 -0.2722328 -0.1484248 -0.06948122 0.016861191 -0.3458044 -0.08234394
-0.19264427 0.2857415 0.15904298 -0.17223443 0.25220242 0.01834685 -0.29991582 -0.18149014
-0.16381823 -0.2583017 -0.38617662 -0.2918686 -0.13851795 -0.15332966 -0.14946797 -0.1432946
1.0110523 -0.29623294 0.5627777 0.13079096 0.1595935 -0.27366868 -0.27795652 0.28449377
-0.9830866 0.044794735 -0.3693489 0.44762442 0.07585271 0.32547042 -0.026783166 0.2761725
0.13017824 -0.01661631 -0.38792047 -0.4643561 -0.1839269 -0.37528014 0.15463534 -0.12717551
0.2736297 -0.34060755 0.005969906 -0.07057415 -0.072952196 -0.122365706 0.29978162 -0.11019261
0.45676464 0.18540135 -0.05911493 -0.10314665 -0.4244338 0.39125794 0.11463642 -0.0027427864
-1.0393599 -0.22135748 0.036685526 -0.069720864 0.07386401 0.60530186 0.07040795 -0.24083002
1.202797 0.12547195 0.120478615 -0.43410292 -0.0012591672 -0.535162 0.20005497 -0.2129301
0.25453886 -0.074956164 0.1132322 0.027391527 -0.11472974 0.050560243 -0.00028802158 0.33463383
-1.2695084 -0.26481438 -0.22343153 0.15370265 0.10932852 0.65287 0.04254447 -0.01003161
-0.4371451 0.18372639 -0.191148 0.06784217 -0.1857539 0.11236306 -0.4588595 -0.13016212
0.58879304 -0.078193724 0.07458119 -0.6115031 0.12108111 -0.8754433 0.023195999 0.088681296
0.26271233 -0.3498661 -0.37500906 0.18542723 -0.26631746 -0.051360946 0.1620175 -0.0065862834
0.17196292 -0.33800468 -0.31135356 0.31808293 -0.3091241 0.0380997 -0.00973391 0.21127404
0.21599783 -0.20503968 -0.2527425 -0.31017932 -0.29213876 -0.22579762 0.08917378 -0.15003519
-0.52813685 -0.3109626 -0.23227464 -0.19023354 -0.0067084376 -0.017144538 -0.31650475 0.24044193
1.1870971 -0.18730897 0.010169593 -0.013246308 0.0155812865 -0.65776616 -0.13622127 -0.06502958
-0.053393126 0.21257581 -0.19241439 -0.09397642 -0.0240779 -0.2663186 -0.15646593 0.19786525
0.44895524 -0.4445731 -0.26545644 -0.3001909 -0.0856661 0.3818071 -0.31513542 -0.3348803
0.008107642 -0.39305842 -0.4015624 0.15530217 0.14144692 -0.27053937 -0.18872343 0.09414933
0.97889453 -0.21063769 0.08635628 0.12148614 0.039636556 -0.72888803 -0.44035798 -0.044396814

bias f4 [128]
00000000: 41eb 553e 7bf9 f13d 0c50 93be b624 5e3e
00000010: ab2f 953e 128b d3be 0a1e 55be 7dde 99be
00000020: 46e4 68be 4811 b8bd 6930 2abe 6eab b9be
00000030: 05ca 7cbe 70e8 09be 4f46 b2be d8fe 5c3e
00000040: bd4f b9bd d69a f5bd 604c edbd c6ed 353e
00000050: 7896 59be 921f f0be 7fd4 a43d 20c0 2abe
00000060: 2174 9abe 7fcc c5be 0463 dcbe e92e a8bd
00000070: 1ea7 753e dd39 7dbe 8f86 8dbe 017c 87be
00000080: 4430 863e b2a3 ca3d f14d bf3e 55ac 8d3c
00000090: 8e4c da3d d1a4 033d c8ef 1bbe b739 c5bd
000000a0: cc23 87be 07e1 a8be f0f0 2a3e a15a d2be
000000b0: da3a 833e 8a0f 54be a5ae 7ebd 1c5a 49be
000000c0: 579c ce3d e4b4 2d3e 30af 9abe 20f0 263d
000000d0: ed9e aebd 095a 14bd 0193 493e ae59 913e
000000e0: 7d5b 643e 8ed7 5a3c b02c f7bc 5535 f23d
000000f0: e043 9dbd 231f 813d 6cf2 203d 40fa 91be
00000100: 5a87 633e 051c 97be d861 32bd 8040 5a3e
00000110: 5583 b13e 8432 bd3c 6b6a 1dbe 4d02 a6bc
00000120: c099 64bc 170e 7abe ad92 b9be ff14 983e
00000130: c030 6bbc 1041 9d3e e9cc 223d d282 973e
00000140: 6c2c 223e 7cfd 09be 2773 193e 7e0e 94be
00000150: a2e5 01be 27e5 a93d dfed c13d 837b 4e3d
00000160: 4c96 93be c202 dbbd 6081 9d3e c884 48be
00000170: 8d16 03be 4a0b 8d3e fb17 263e fb34 8f3e
00000180: 9bf3 333e f284 f23d 60fb cdbe 86fd 353e
00000190: 0ad6 a03e 2046 30bd cdc9 313e 3ac2 723e
000001a0: 9d92 533e 3e3a 32be e541 e0bd c44b 9fbc
000001b0: 77be b7be 1a33 44be 3788 523d e5fa 53bd
000001c0: 2954 cfbd 03f1 ddbe da7f fabd 7c40 87be
000001d0: 58b9 e7bd 600a 323e 5718 cbbd 5ccc 6fbe
000001e0: 1f3b 90be 32b3 5dbe 6c51 85be b1f9 e13d
000001f0: 9c80 213e 3fe2 48bc 2b8d 503e 36bd 70bd
0.20890523 0.11815163 -0.28772008 0.21693692 0.2913793 -0.4131704 -0.2081224 -0.30052558
-0.2274333 -0.08987671 -0.1662003 -0.36263603 -0.2468644 -0.13467574 -0.34819266 0.2158159
-0.09048412 -0.11992423 -0.11586833 0.17766485 -0.21248806 -0.46899086 0.08048343 -0.16674852
-0.30166724 -0.3863258 -0.43044293 -0.082120724 0.23989531 -0.24729104 -0.27641723 -0.26461795
0.262087 0.09894504 0.37364152 0.017294088 0.10659133 0.032139603 -0.15228188 -0.09630149
-0.26394498 -0.32984182 0.16693473 -0.4108477 0.25630838 -0.20709053 -0.062178273 -0.1966328
0.10088413 0.16963536 -0.30211782 0.040756345 -0.085264064 -0.036218677 0.19684984 0.28388733
0.22300525 0.013357056 -0.030172676 0.118265785 -0.07678962 0.06304767 0.03929369 -0.28511238
0.22219601 -0.29513565 -0.043550342 0.21313667 0.3467051 0.023095377 -0.15372626 -0.020264769
-0.0139526725 -0.24419437 -0.36244717 0.2970352 -0.014354885 0.307137 0.0397462 0.29591995
0.15837258 -0.13475603 0.14985333 -0.28917307 -0.12685254 0.082956605 0.094691984 0.05041076
-0.28825605 -0.106938854 0.30762768 -0.19581902 -0.12801571 0.27547675 0.16220085 0.27970108
0.17573397 0.118417636 -0.40230846 0.17772493 0.314133 -0.043035626 0.17362137 0.23706904
0.20661397 -0.1740503 -0.109500684 -0.019445308 -0.358875 -0.19160119 0.051399436 -0.051752944
-0.10123474 -0.4334794 -0.12231417 -0.26416385 -0.113146484 0.1738677 -0.09916752 -0.234178
-0.28170106 -0.21650389 -0.26038682 0.11033953 0.15771717 -0.0122609725 0.20366351 -0.058774196

weight f4 [128, 128]
00000000: db84 6b3d e20c 763c 37a3 afbd aabc a43c
00000010: 3c2f a9bc 3d30 763d 4128 823d 5f67 dd3c
00000020: 8bfe 823d 84b1 a4bd 18c0 86bb 0ac1 8ebc
00000030: 2c7d bbbd 1d75 0dbc 543f 80bc f31a 743a
00000040: 8055 8a37 e446 5c3b cef2 8dbd 14d5 f8bc
00000050: da85 0e3d fd70 3d3d 4d6c 2d3d 0f12 75bc
00000060: 823e 95bd e793 abbd 0ba9 aabd afac 9bbd
00000070: 40f0 2fbd da00 1cbd 9f3a 9dbd 32ba 86bd
00000080: 2131 053d 094c babd 2ac2 cd3c 4b0e f2bc
00000090: 1bc5 a9bd 8d6c bfbd 9abf 443d 03ec 66bd
000000a0: 5e7e a5bd 80db 73bd 10e6 113d a387 903d
000000b0: d729 21bd d898 efbc b05c d53c 9da8 433d
000000c0: 1dcf bcbc 9441 05bd 962f 0ebd edcf 023d
000000d0: 1249 963d 5f55 883c 1d8b 223b 2958 eb3c
000000e0: 62e9 5abc 1d03 db3b 6b0f 0fbc e1fd 793c
000000f0: 93f9 8dbd 3d62 a9bd 5d64 afbd 118a 7a3c
00000100: 57e8 733d cf0f 0b3d 24f1 403c 2262 acbc
00000110: 0bbe cd3c 5387 e6bc cfd8 e43c ee09 4b3d
00000120: 05d2 52bd 7291 963d 9ec2 8abd 5ae3 b33d
00000130: 08b0 4d3d a6d4 5c3d 108b adbd c71c 05bd
00000140: 766f 863d a683 b33d e68b 813d f358 f6ba
00000150: af12 9cbc 78a4 b93c 5214 b83c a9d1 dbbc
00000160: e7b7 a43b aa3f 26bd 3345 083d 3ed3 0ebc
00000170: b07d ddbc c5cf a7bd 85e2 17bd 3b87 70bc
00000180: bafd 78bd 03fb aabc 90fd 8d3d 4673 893c
00000190: b6c5 43bd 7c16 45bc 687c 0939 e5ba c9bc
000001a0: fb37 1dbd 9738 38bd 2c10 adbb bf77 9d3d
000001b0: a745 1cbd cdf6 53bd 3020 c2bc c520 fbbc
000001c0: 07b6 bfbd 9c10 8b3d 259f ddbc 1f5e a6bd
000001d0: e321 bebd 89f2 a43c 410d cbba e781 52bd
000001e0: a578 0b3c 3a09 1dba dc8d 843d 1571 b03b
000001f0: f2d0 d53c 25ae 1cbd 9745 3dbd 2616 953d
00000200: b6a5 f33c 01d0 8fbd a97e c6bd 4650 b63d
00000210: fe1c 993c e445 9cbc d26c 98bd 5613 f5bd
00000220: b31a 0b3c ffcc 93bd 30ab ffbd c21e babd
00000230: 958d 163d 4426 e3bc e7a6 0dbe a124 f43b
00000240: e547 e7bd f854 7e3c 89e8 c73c f011 48bd
00000250: 37f3 ea3c 01f4 a6bd 0c35 ab3c 1e8c dbbd
00000260: 8f45 023d 360e cebd 5e1c b0bd 438a 03be
00000270: 12c7 243c 7701 d63c da97 c23c 3216 9e3c
00000280: f58a 0fbe 7abe 833d b355 2bbd 9cb5 50bc
00000290: 0733 24bd e530 703c 1c12 8abd 46c2 91bd
000002a0: 7958 c23c 6ccf b5bd 6b0a b2bc f62f b53b
000002b0: ddf2 7cbd 00da ce3c 946d 983d 2b5a d7bc
000002c0: 2327 efbb 6e4e 59bd b8af d33c 83db 333d
000002d0: fea0 ccbc c41b ccbd af7e 18bd 7cca 853c
000002e0: eaf1 f4bd 2cf0 583d f4f1 a7bd 58fc 75bd
000002f0: 4a85 893d a83c 8a3d 7ba2 803d a682 a5bd
00000300: 015e ad3d 233d efbd fc12 90bd 6c57 79bd
00000310: f548 a53c a517 283d cbc1 01be b33f a8bd
00000320: 8a8d 6ebd dc0c 6b3d bc9a 7dbc 02bc 523d
00000330: bfa8 ab3d 42dc 9bba 1c7c 8c3c 4032 9a3c
00000340: dc95 83bd 2f13 81bc 8fec c43b b618 66bd
00000350: 78ab 3e3c 41c5 8cbd 77ab acbd f0a0 0e3c
00000360: bdf2 613d c41f a93d 6948 c1bc 0a34 e7bd
00000370: 5230 d8bc 41ee 063d a4d9 e4bd 5e23 7ebb
00000380: 4775 c3bd f475 83bd 0c20 0ebe 4ccf 823d
00000390: 96df 5d3d 0e5f 8d3d 2e63 99bc 8cea 81bc
000003a0: 6e47 2dbd 0c3f b9bd 28ab e9bc e0ae fcbc
000003b0: 7955 713c 4b6c ccbd 06b5 01bd 931e e13c
000003c0: e494 2fbc 9015 a9bc 48c9 73bd adab 19bd
000003d0: 5a38 abbd be8d 173d ca5e a03c d65e 72bd
000003e0: ad05 8bbd 1d36 333d 8a09 bfbd 010c bb3c
000003f0: 89a7 babc 717d 55bd 77a9 873d 3587 59bd
0.057499748 0.01501772 -0.08576053 0.020109493 -0.020652406 0.060104597 0.06355334 0.02702683
0.063962065 -0.08041671 -0.004112255 -0.017426033 -0.09154734 -0.008633879 -0.015655197 0.0009311877
1.6490696e-05 0.003361159 -0.06931077 -0.030375041 0.03479562 0.046250332 0.04233961 -0.014957919
-0.07287313 -0.083778195 -0.08333024 -0.07601296 -0.04295373 -0.03808675 -0.07677197 -0.06578483
0.032517556 -0.09096534 0.025116999 -0.029547831 -0.08289548 -0.09346876 0.048034288 -0.056377422
-0.08080743 -0.059535503 0.035619795 0.07057121 -0.039346542 -0.029247686 0.026045173 0.047768224
-0.023047978 -0.032533243 -0.03471335 0.031936575 0.07338156 0.01664227 0.0024802156 0.028728561
-0.013361307 0.0066837207 -0.008731703 0.015258283 -0.06932368 -0.082706906 -0.08564065 0.015291707
0.05954775 0.033950623 0.011776242 -0.021042887 0.025115034 -0.0281407 0.027935414 0.049570017
-0.05146982 0.0735196 -0.067754015 0.08783598 0.050216705 0.053913735 -0.0847379 -0.032498147
0.06564228 0.08765344 0.06325512 -0.001879482 -0.019051878 0.022661433 0.022470627 -0.026833372
0.0050268057 -0.04058806 0.03326912 -0.008717356 -0.027037472 -0.08193926 -0.03708126 -0.014680679
-0.060788848 -0.020871645 0.06933129 0.0167786 -0.047795974 -0.0120292865 0.00013111683 -0.024625251
-0.038383465 -0.044975843 -0.005281469 0.076888554 -0.038152363 -0.05174904 -0.023696989 -0.030655274
-0.09360891 0.06790277 -0.027053425 -0.08123421 -0.09283807 0.020135181 -0.0015491621 -0.051393416
0.008512651 -0.00059904496 0.0647237 0.005384574 0.02610061 -0.038252015 -0.046208944 0.07279615
0.029742103 -0.070220955 -0.09692127 0.0890203 0.018690582 -0.019076295 -0.07442631 -0.11966579
0.008490252 -0.07216834 -0.12483823 -0.09087898 0.036756117 -0.027728207 -0.138332 0.0074506556
-0.1129301 0.015523188 0.024402874 -0.04884523 0.028680427 -0.08152009 0.020899318 -0.107200846
0.031804617 -0.10061304 -0.085991606 -0.12845711 0.010057228 0.026123745 0.02375405 0.019297693
-0.14017852 0.06432815 -0.041829776 -0.012738612 -0.040087726 0.014660095 -0.06741735 -0.07117133
0.023723828 -0.08877453 -0.021733483 0.005529399 -0.06175505 0.025250435 0.07442775 -0.026288113
-0.0072983666 -0.053053312 0.025840625 0.043910515 -0.02497911 -0.099662334 -0.03723019 0.016331904
-0.11960204 0.05296342 -0.08200446 -0.060055107 0.06714876 0.067498505 0.06280991 -0.0808156
0.084651954 -0.11681583 -0.07034871 -0.060874388 0.02017639 0.041038174 -0.12671582 -0.08215275
-0.05824045 0.05738531 -0.015478786 0.05144883 0.08381795 -0.0011891203 0.017149024 0.01882279
-0.06425068 -0.015756218 0.0060096453 -0.05617591 0.011637561 -0.06873561 -0.08431142 0.008705363
0.055163134 0.08258012 -0.023594098 -0.112892225 -0.026390228 0.03294206 -0.11174324 -0.0038778405
-0.09543853 -0.06418982 -0.13879412 0.06387195 0.054168306 0.06902896 -0.01872405 -0.015858911
-0.04230445 -0.09045228 -0.028523996 -0.030845106 0.014729851 -0.09981593 -0.031666778 0.0274804
-0.010716651 -0.020640165 -0.05951813 -0.03751724 -0.083603576 0.03700041 0.019576449 -0.059172474
-0.06788192 0.04375278 -0.09327991 0.022832872 -0.022784965 -0.052121583 0.0662412 -0.05310746

bias f4 [128]
00000000: 2e83 2cbc ddbf d9bd 899c 483d 31dc ae3d
00000010: fc8c 8ebc c167 d6bb fdf6 35bd 902c c4bd
00000020: 3383 783d ae02 b7bd aefb 8a3d b978 9fbc
00000030: 30fc 363d ea8d 35bd a333 30bb 3ac7 28bd
00000040: b9bc 36bd 26db d63c 858b 9c3d 179b 82bd
00000050: 87ec c5bc d7c3 88bd c86b 1abd f20f bfbd
00000060: 058d 6e3c 37c0 86bd 8e2b 8fbd 6437 23bd
00000070: 01b0 97bd 9aa0 2fbd 0fdc 5f3d d22c c4bd
00000080: 1db2 9a3d cf3b 8abc c7da 323d 7d22 cd3c
00000090: 12bc 183c 1d4b 11bd 1da6 1dbd e6bd 143d
000000a0: bcdc 093d 0651 99bd 3933 a3bc f89d 883d
000000b0: becd 8f3c a931 a03d e1d0 b3bc 576f 98bd
000000c0: 9941 3c3d d6f6 183d 9908 5dbd 72cc 76bc
000000d0: 0683 c2bd 18fe 90bc a37a 8abb 6497 95bd
000000e0: cac4 86bd 030f 8dbd 6a5f d6bd 6bb2 c9bb
000000f0: eb93 bb3c 5c64 95b8 83c2 00bd 64f3 9cbd
00000100: 1720 3cbd 01f5 103c 3217 a4bd d63e 97bd
00000110: 14c7 8fbd 5e01 aabd 36b3 85bd 29aa 50bd
00000120: 78b0 313d 11fd 90bd 0720 c1bd 0f50 dbbc
00000130: 605b 30bd 6955 7dbd 5c87 48bd 1a03 e73c
00000140: e94f c1bd e6c9 78bd 4767 b4bd 84c0 ca3c
00000150: 00cb 8bbd d62c efbc 7f01 a7bd c572 bebd
00000160: 091c 25bc c430 563d 84ac 4a3d d0f4 bd3b
00000170: 7e82 de3c 9012 483d 7255 7e3c 67be b23d
00000180: 442d 0abd 332f 98bd 6ee9 0fbc b67e 37bd
00000190: 6aff debd 4d61 193d a84e 22bc 8be1 5ebd
000001a0: 5856 77bd b1b2 3cbd 0786 a63d e188 03bb
000001b0: 9705 bfbd 19a8 70bd fac9 a7bd 5bab 06bd
000001c0: a032 c33d 123e 8ebd af2d 033d af4b 993c
000001d0: 852f 933d 77c3 3dbc 1d8b 3a3d e9e3 bf3c
000001e0: e258 bbbd c4dc c3bd c0b2 5e3d da2b 443d
000001f0: f83f a53c 3dbf fabc ddcc 0cbd fa4b 99bd
-0.010529323 -0.10632298 0.04897741 0.08538092 -0.017401211 -0.00654313 -0.044425 -0.09578812
0.060671996 -0.08936058 0.06786285 -0.019466745 0.0446741 -0.044324793 -0.0026886247 -0.041205622
-0.044613574 0.026227545 0.07643799 -0.06377237 -0.024160637 -0.066779785 -0.037700444 -0.09329213
0.014559989 -0.06579631 -0.06990729 -0.039847746 -0.07406617 -0.04287777 0.054653224 -0.09578861
0.07553504 -0.016874222 0.043665674 0.02504086 0.009322183 -0.035472024 -0.038488496 0.036313914
0.033657774 -0.07486157 -0.019921886 0.06670755 0.01755416 0.07821972 -0.021950187 -0.074431114
0.045960996 0.037344776 -0.053963277 -0.015063392 -0.09497647 -0.017699286 -0.004226045 -0.07304266
-0.06580503 -0.06887629 -0.104674175 -0.0061553023 0.022897681 -7.123567e-05 -0.0314355 -0.076636106
-0.04592904 0.008847476 -0.08012237 -0.07385032 -0.07020393 -0.08301042 -0.065283224 -0.050943527
0.043381184 -0.070795186 -0.09429937 -0.026771573 -0.043055892 -0.06184903 -0.048957214 0.028199721
-0.0943907 -0.06073942 -0.08808761 0.024750002 -0.068258286 -0.029196184 -0.08154582 -0.09299234
-0.010077485 0.0522926 0.04948093 0.005797006 0.027161833 0.048845828 0.015523301 0.087277226
-0.033734575 -0.074308775 -0.008783681 -0.044798575 -0.1088856 0.03744631 -0.009906448 -0.054414313
-0.06038508 -0.04606885 0.081310324 -0.00200706 -0.09327238 -0.05875406 -0.08192821 -0.03287826
0.0953114 -0.06945433 0.03202599 0.018712847 0.07186798 -0.011582247 0.045542825 0.023424106
-0.091478124 -0.09563592 0.054369688 0.047893383 0.020172104 -0.030608768 -0.03437506 -0.074851945

weight f4 [128, 128]
00000000: dfcf 8cbc 9374 8d3d 96af 2b3d a4ed 6fbc
00000010: 41a3 39bd 3a05 a63c d0cd 8c3d de75 35bc
00000020: 586e 73bc 634f f8bc 62a6 75bc bd20 063d
00000030: c287 6cbd c363 64bc c5f4 0f3c e6bf 7cbd
00000040: 284f 913d fd8b 613d 0914 93bd 6f33 68bd
00000050: fa69 eabc 7f0e 653d 529c 093d 5c05 853d
00000060: a72a 3e3d 1046 76bc 605b afbd 54e6 4bbd
00000070: d248 c03c a742 44bd ca07 dabb 6f2d 93bd
00000080: 4f2f 9a3d c551 a4bd 7b15 38bd a7c5 6ebd
00000090: 5c25 943d 47d0 3eb7 8741 e7bd b824 833d
000000a0: c8fe 543d ef00 49bc 4b68 5ebd 6d51 533c
000000b0: 042a 0e3d 1175 933d 6dc3 d0bc 336a ccbc
000000c0: 517f c63d 7c6b 6d3d 6636 77bc 8b4d c8bb
000000d0: d698 a6bd a84f 893d 378b 25bd d958 1bbd
000000e0: 9843 b63c 3467 9b3d 1d35 f43c e9ad 1f3d
000000f0: cf33 30bd 1df6 97bd 225f 9ebd d989 9f3d
00000100: 108d b73c 3818 733c 1a93 373d 06e0 c8bd
00000110: a4c9 abbd d337 a73c af39 a33d e380 653d
00000120: abb4 923d 4911 90bd 4fab 833d 91dc 663b
00000130: aeae 4ebc 0681 a33d 15b6 a93d ea89 75bc
00000140: 4ac3 bfbc dd96 cd3d fcf8 af3c fc6c 233d
00000150: 5dc7 b8bc 8e12 103c c166 423d 08dd 683d
00000160: 9fb1 e1bc 3d9e 37bd 26be e9bc e839 77bd
00000170: 8792 a43d 2069 cebd f2db 9bbc a870 59bd
00000180: 6009 86bd 1257 af3c 8e44 983d 7a42 9dbc
00000190: db81 843d 0c01 a93d 1dea 86bd 6fb5 8b3d
000001a0: dfb2 d3bd 675b 73bd 3655 a23c d80e b0bd
000001b0: 400a 693d 2f2e f7ba 1378 afbd 1f10 f53c
000001c0: 6e30 2a3d c21b 0a3d f74a 5dbc 1430 4f3d
000001d0: 897e 223c 41b3 8b3d 84d4 ddbc bd79 243d
000001e0: daf8 773d fa38 a53d d5fa 13bd 1a12 933d
000001f0: a606 97bd 568b c33c ea1b 9b3c 8375 e43c
00000200: f5ad c93c 3489 ca3d d34d 4f3d 6631 e83c
00000210: 4273 a7bb fd1f d23b c08c 37bd 394d 233d
00000220: 6a65 a33d f99d 893c c236 22bd 456e 83bd
00000230: 7a22 9a3a 089b 463d c019 293c 0b16 193c
00000240: 0df0 3dbd 2da5 ae3d 29ad 8b3d b8f5 cdbb
00000250: 1571 503c 22cf b3bd a065 f73b 0dcd 923c
00000260: d7e8 d93c cb78 92bd 72da cb3b c9de 803d
00000270: bc7a bdbc b613 943d fb64 f9bc 9c53 7cbd
00000280: 2524 823d 08cb 72bd 7d4d 19bd 7511 833d
00000290: 9ee1 943d 9e38 5d3d ced6 893d 4d7d ac3d
000002a0: 8009 c83b ba2e 383d a430 79bb 2a73 97bd
000002b0: b857 81bd 8b24 4a3d d42f 3bbc d191 9cbd
000002c0: 3d29 a23d 2639 803c 6692 8d3d 1556 9cbc
000002d0: aa8b f5bb af19 033d 062d ab3d 89ef 453b
000002e0: 4bfa 8a3d ff35 4abd 5bb9 86bd 8c50 993d
000002f0: 2667 dd3c b3a7 8abd 6997 a23d f1f9 9cbd
00000300: a2c2 fe3c 3521 b73b b044 853d 4620 a13b
00000310: ca20 953d f050 893c 9162 a7bc d670 d9bc
00000320: fa5f eb3a c892 5fbd 2e67 893c f8b8 633d
00000330: c91f a73d 8701 9bbd 0da8 76bd 6afa e13b
00000340: 685a 703c e4dd 133c bf7d 38bd 46b0 843d
00000350: ebf6 ab3d 39ff d63b afe5 ab3d 12c9 acbd
00000360: ab85 93ba 7c1e 84bd 1c02 a53a 0e54 5d3d
00000370: e883 70bd 5e1d f1bc 4603 69bd e70f 32bd
00000380: c6e7 2fbd 06b1 fb3c e55f b13d c2cb 5ebd
00000390: 4e60 c43a f65d 92bc 84d2 bfbb 7acb 5f3d
000003a0: 8096 a4bd 49ed 84ba 4219 54bb bcbf a2bd
000003b0: fd53 75bd b1a5 493d 0b24 bebd 3d92 853b
000003c0: 4935 283d 755d 3fbd d2bd 823d b29e 9cbc
000003d0: 3a48 2ebd 0baa b43c 690a 9cbd dc3b e33c
000003e0: 66ac 43bd 79f1 593d cd06 7c3d 9d29 143d
000003f0: 73bb f2bc 5979 31bd 8447 453b 6427 28bb
-0.017188964 0.069070004 0.0419155 -0.01464406 -0.045321707 0.020266164 0.06875193 -0.011075465
-0.014857851 -0.030311292 -0.014993282 0.032746065 -0.057746656 -0.013939801 0.008786385 -0.061706446
0.07095176 0.055065144 -0.07181556 -0.056689676 -0.028614987 0.055922028 0.033596344 0.06495163
0.046427395 -0.015031353 -0.0856235 -0.049780205 0.023472223 -0.047915127 -0.0066537606 -0.071864
0.07528555 -0.08023409 -0.04494236 -0.058293965 0.07233688 -1.1373376e-05 -0.11291795 0.06403488
0.05200079 -0.012268289 -0.05429868 0.012897831 0.034708038 0.07200063 -0.025483811 -0.024952983
0.096922524 0.057963833 -0.015088653 -0.0061127595 -0.0813462 0.06704646 -0.04041597 -0.03792653
0.022249028 0.07588044 0.029810483 0.038984213 -0.04301816 -0.07419989 -0.07732989 0.07789964
0.022406131 0.014837317 0.04481802 -0.09808354 -0.08388069 0.020412361 0.07969987 0.05603112
0.07163366 -0.07034547 0.06429159 0.0035226683 -0.012614889 0.07983594 0.082866825 -0.014986495
-0.02340855 0.100385405 0.02148103 0.039898857 -0.022556001 0.008793486 0.047461275 0.056851417
-0.027550517 -0.044828642 -0.028533053 -0.060357958 0.080357604 -0.10078645 -0.019025777 -0.053085953
-0.06544757 0.021403823 0.07434951 -0.019196738 0.064700805 0.08252153 -0.06587622 0.06821715
-0.10336851 -0.05941334 0.019816022 -0.08596581 0.05689454 -0.0018858368 -0.08567824 0.029914914
0.041550092 0.03371788 -0.013506643 0.05058296 0.009917864 0.06821299 -0.027078874 0.04015516
0.060540058 0.08067508 -0.036127884 0.07181187 -0.07374315 0.023870151 0.018934209 0.027888065
0.024619082 0.09889451 0.05061133 0.028343868 -0.0051101753 0.0064125047 -0.044811964 0.039868567
0.079783276 0.01679896 -0.039603002 -0.064175166 0.0011759542 0.048487693 0.010321081 0.009343634
-0.04637151 0.085275985 0.06820137 -0.0062853955 0.012722273 -0.08779742 0.0075499564 0.017920041
0.026600285 -0.07151946 0.006221109 0.06292493 -0.023129813 0.07230322 -0.030443659 -0.061603174
0.0635455 -0.059275657 -0.037427414 0.06399814 0.072695956 0.054009072 0.06730424 0.08422337
0.006104648 0.044966437 -0.0038023377 -0.07395013 -0.06315559 0.049351256 -0.011424977 -0.07645
0.07918022 0.01565225 0.06912689 -0.019084016 -0.007493456 0.032006916 0.08358197 0.0030202589
0.06786021 -0.0493679 -0.065783225 0.07486066 0.027026724 -0.06770267 0.079390354 -0.0766486
0.031098668 0.0055886754 0.06507242 0.0049171774 0.07281645 0.016762227 -0.020432742 -0.026543062
0.001795768 -0.05458334 0.016772833 0.05559632 0.081603594 -0.07568651 -0.06021886 0.0068963068
0.014669992 0.009025071 -0.045041796 0.06478934 0.08396705 0.0065611866 0.08393418 -0.084367886
-0.0011255046 -0.06451127 0.001258913 0.05403524 -0.058719546 -0.029432949 -0.056887887 -0.043472197
-0.042945646 0.03072406 0.086608686 -0.054393537 0.0014982314 -0.01786707 -0.005853953 0.05463741
-0.08036518 -0.0010141517 -0.0032363688 -0.07946727 -0.05989455 0.04923028 -0.092842184 0.004076271
0.04106644 -0.046719987 0.063838616 -0.01911864 -0.04254935 0.022053739 -0.07619173 0.027738504
-0.047771834 0.053208802 0.061529923 0.036172498 -0.029630398 -0.043328617 0.003010244 -0.0025658244

bias f4 [128]
00000000: 6c5a 2abe b5b2 ecbd b4d4 113e bfc0 48bd
00000010: 5219 e23d b11a 2fbd b224 f73e 451f 24be
00000020: d98c 3f3e 474a 86be 0058 9cbd ba76 c23d
00000030: 33ce 87bd 28d0 4f3e 998f 06be 00ba 56be
00000040: 736a eb3e 5bf9 763e 341f 0bbe aa27 1bbe
00000050: d65a 08be 51e0 07bd f8cf 04be e100 1e3f
00000060: 2470 c63d 7f59 7bbe c7a1 b0bd d3de a0be
00000070: 924f 553e 559d 853e 541c 4e3c 183e 38bd
00000080: f820 d7bd eabd a4bc f945 03be d26e 04bd
00000090: 9915 9d3e 2c70 713e 2874 873e a147 cc3c
000000a0: 1b90 e93d ebd6 29be 7b83 dbbd 9204 153d
000000b0: b22a 88bc f38e 953e e0c5 41bd 984d b4bb
000000c0: 3fd0 e33e b6ab 4e3e 6400 cfbb 81cb 24bd
000000d0: a7f1 b9bd cb3c 2fbe 68a7 1ebe 4320 04be
000000e0: 5e6f 0ebe 67fd d0bc 189f 51bd b82f 723d
000000f0: e2ce 4cbd 7c66 dbbd 0fb2 94bd 4e7f 80be
00000100: 13c6 21be 8a92 72bd 410b 08bd 30e1 5dbd
00000110: 3fb3 393d a17f 2a3e 16fe 8fbe 878a 09be
00000120: 18b1 e4bd 57c6 5b3c 3b01 853e 23cb 67bd
00000130: d83b 1dbb bf81 46bd 9a4e 07be 6ecd 603d
00000140: 2572 2bbe 85ba e43e d37c 893e 783d 693e
00000150: ae3f 0c3f 7191 28be d2f1 0fbd 1b47 2cbd
00000160: 296f 41bc 5442 25be 50f4 43be a7b3 0d3e
00000170: a141 85bc e7ce 9c3d 582a 19be 76ab b8bd
00000180: 50b4 f4bd 2dd7 703e 35c5 7dbd 3189 6b3d
00000190: e9cb fcbc db05 89bd 7cc7 a1be 1f4b 233e
000001a0: 344b ebbd e99f 22bd c92e 9dbe 3a60 873e
000001b0: 511c 03be 2341 6bbe 66db 0ebe 9a9c 20be
000001c0: 1945 2abe 8259 44bd b16b b5bd 6aa4 6a3e
000001d0: 0883 b0bc d853 dd3b 5e8d a0bd 6408 233e
000001e0: 7f83 00be ad71 4cbd ba3c d3bd 8d90 653e
000001f0: 79e8 89bc 9264 b4bc 1fe6 43bd 3a3e 17bd
-0.16636056 -0.11557523 0.14241296 -0.049011942 0.11039986 -0.042750064 0.48270184 -0.16027553
0.18706073 -0.26228544 -0.07633972 0.094953015 -0.06631126 0.20294249 -0.13140716 -0.20969391
0.45979652 0.24118559 -0.13586122 -0.1515185 -0.13315901 -0.03317291 -0.12969959 0.6172009
0.09689358 -0.24545859 -0.086246066 -0.3142 0.20831135 0.26096597 0.012579996 -0.044981092
-0.10504335 -0.02011009 -0.12819661 -0.03233225 0.3068054 0.23577946 0.26455808 0.0249365
0.11404439 -0.16585891 -0.10718437 0.03638131 -0.016621921 0.29210624 -0.04730785 -0.005502414
0.44494817 0.2018269 -0.0063171852 -0.04023314 -0.09079295 -0.17113034 -0.15493548 -0.12902932
-0.1390967 -0.025511457 -0.051177114 0.05912754 -0.050001986 -0.10712907 -0.072605245 -0.25097126
-0.15798216 -0.05922178 -0.033213858 -0.054169834 0.045336958 0.16650249 -0.2812354 -0.1343175
-0.111665905 0.013413987 0.259775 -0.05659021 -0.0023991968 -0.04846358 -0.13213578 0.054883413
-0.16742761 0.44673553 0.26853046 0.22777355 0.5478467 -0.16461731 -0.035142727 -0.04206
-0.011806288 -0.16138583 -0.19136167 0.13838063 -0.016266646 0.07656651 -0.14957559 -0.090170786
-0.119484544 0.23519583 -0.06195565 0.057503883 -0.03085895 -0.0669057 -0.31597507 0.15946625
-0.11488953 -0.039703283 -0.30699757 0.26440603 -0.1280377 -0.22974066 -0.13950881 -0.15684739
-0.16627921 -0.047936924 -0.08858431 0.22914281 -0.021546856 0.0067543797 -0.07839464 0.1592117
-0.12550162 -0.049913097 -0.10314317 0.22418423 -0.016834484 -0.022020612 -0.047826882 -0.03692458

weight f4 [1, 128]
00000000: 6af7 47bc 32e5 a5b8 8a78 4cb9 bce3 f4bc
00000010: a54a 033b cab4 e6bc c4f1 3d3d 9fe5 23bd
00000020: 56e6 713d aad4 48bd 57f8 90bd 3d20 153b
00000030: d736 b73c b1dd c93d a70a 56bd 527f 9fbb
00000040: c342 0d3d 4cc3 703d 92e2 20bc 85ed e13c
00000050: 4bec aebc 7089 013c 80f7 38bd 26f4 b93e
00000060: 217e 483c a6bb 49bb f61e 013c 6ccf 253c
00000070: 9d64 873d be82 5f3d 9239 00bc 3efe 80bd
00000080: a2d1 b2bb e233 69bd 489a b73a aaa1 16bc
00000090: 33d1 803d 15f7 693d 00df 3abc c88c 3139
000000a0: 56e5 d23a 1c04 46bd 85af a7bc c12d 813b
000000b0: 79fc 9dbc e974 ab3d 646b d43a 8c61 9bbc
000000c0: be3b b03c 45e3 f63c 874d 03b8 0b5f 83bd
000000d0: ab89 773d a96a 93bb aca9 203b 911a 76bd
000000e0: eed0 973b 9d8b a9bc 608d 10bd 6237 813d
000000f0: b201 7cbd 4851 30bd b466 8abd 99c5 233c
00000100: 1248 14bd 738d 003d b365 14bb f0b9 1ebd
00000110: 9db2 0bb8 2c29 feb9 e72a ba3a 2527 abbc
00000120: d6d3 10bd 3fd9 a23a 5e3b 863d 7115 2dbd
00000130: c434 41bc 7560 85bd f42a 183c b624 fe3b
00000140: fe9e c93c 10f8 493e 380d 123d f0c4 ed3c
00000150: ab6a 973d 3425 813b f771 04bc b222 91bd
00000160: 13a5 3ebb e2e2 4cbd 5f21 713c 9f1c 973a
00000170: f969 853a 6089 2b3d 289c 1cbd 56ed b23c
00000180: 13fc 0bbd b9ed a23d eae2 7f3b bbb6 833d
00000190: b269 db3b 69df 8fbc 8bba 313c 9eae a23d
000001a0: e37a 34bd 9deb 32bc d941 013c a05d 283e
000001b0: 99e7 d0bb 0170 493c d83a 29bc 7551 2fbd
000001c0: 9d71 3ebc 79ea 0fbc bc78 62bd fac7 103d
000001d0: 4a67 e9bb 904b d93b ed76 be3b 760b 643c
000001e0: a56a 06bd d6fe 473d 8d9d c1bc 4e19 da3c
000001f0: 63ce 18bd bf16 c4bb 611f 1fbb eb0a 86bc
-0.012204984 -7.910504e-05 -0.0001949986 -0.029893748 0.0020033505 -0.028162379 0.046373144 -0.040013906
0.059057556 -0.049030937 -0.07078617 0.0022754811 0.022365017 0.098567374 -0.052256253 -0.0048674727
0.034487497 0.05878 -0.009819644 0.027579078 -0.021352908 0.007906303 -0.04515791 0.36319083
0.012237103 -0.0030782013 0.007880917 0.010120254 0.06610987 0.054568045 -0.007826226 -0.06298493
-0.005457119 -0.056934245 0.0014007771 -0.009193817 0.062899016 0.0571204 -0.011405706 0.0001693248
0.0016090076 -0.048343763 -0.020469436 0.003942222 -0.019285427 0.08371908 0.0016206321 -0.018967412
0.021512862 0.030137667 -3.1305037e-05 -0.064146124 0.060434025 -0.004498799 0.0024515195 -0.06008393
0.0046330607 -0.020696456 -0.035291076 0.063093916 -0.061525054 -0.043046266 -0.0675787 0.009995841
-0.036201544 0.031384896 -0.0022643625 -0.038751543 -3.330653e-05 -0.0004847733 0.001420346 -0.020892689
-0.035358272 0.0012424364 0.06554292 -0.042256776 -0.011792365 -0.06512538 0.009287585 0.007755841
0.024611946 0.19723535 0.035657138 0.029024571 0.07393392 0.0039412025 -0.008083812 -0.07086696
-0.002909009 -0.05002106 0.014717429 0.0011528915 0.0010178677 0.041879058 -0.03823486 0.021841686
-0.034175944 0.07955498 0.0039045163 0.064313374 0.0066959495 -0.017562585 0.010847698 0.07943462
-0.044062506 -0.010920432 0.007889234 0.16441965 -0.006375265 0.01229477 -0.010328971 -0.042802293
-0.011623767 -0.00878393 -0.055290923 0.035346963 -0.0071229087 0.006631322 0.005812517 0.013918748
-0.032816548 0.048827015 -0.023634696 0.026623394 -0.0373062 -0.005984157 -0.0024280178 -0.016362628
